2_Layer_CNN_64
----------------------------------------------------------------
Input size (MB): 0.05
Forward/backward pass size (MB): 0.91
Params size (MB): 4.69
Estimated Total Size (MB): 5.65
----------------------------------------------------------------
----------------------------------------------------------------
        Layer (type)               Output Shape         Param #
================================================================
            Conv2d-1            [-1, 8, 64, 64]             104
              ReLU-2            [-1, 8, 64, 64]               0
         MaxPool2d-3            [-1, 8, 32, 32]               0
            Conv2d-4           [-1, 16, 32, 32]             528
              ReLU-5           [-1, 16, 32, 32]               0
         MaxPool2d-6           [-1, 16, 16, 16]               0
           Dropout-7           [-1, 16, 16, 16]               0
           Flatten-8                 [-1, 4096]               0
            Linear-9                  [-1, 300]       1,229,100
             ReLU-10                  [-1, 300]               0
          Dropout-11                  [-1, 300]               0
           Linear-12                    [-1, 2]             602
================================================================
Total params: 1,230,334
Trainable params: 1,230,334
Non-trainable params: 0
----------------------------------------------------------------


[ 1/10] Train Loss = 0.2823; Valid Loss = 0.1994; Valid Accuracy = 92.9%
[ 2/10] Train Loss = 0.2113; Valid Loss = 0.1781; Valid Accuracy = 93.3%
[ 3/10] Train Loss = 0.1934; Valid Loss = 0.1867; Valid Accuracy = 92.5%
…
[ 7/10] Train Loss = 0.1634; Valid Loss = 0.1473; Valid Accuracy = 94.7%
[ 8/10] Train Loss = 0.1581; Valid Loss = 0.1349; Valid Accuracy = 94.9%
[ 9/10] Train Loss = 0.1540; Valid Loss = 0.1346; Valid Accuracy = 94.8%
[10/10] Train Loss = 0.1519; Valid Loss = 0.1292; Valid Accuracy = 94.9%


[10/10] Train Loss = 0.1519; Valid Loss = 0.1292; Valid Accuracy = 94.9%
________________
2_Layer_CNN_128_Base


----------------------------------------------------------------
        Layer (type)               Output Shape         Param #
================================================================
            Conv2d-1          [-1, 8, 128, 128]             104
              ReLU-2          [-1, 8, 128, 128]               0
         MaxPool2d-3            [-1, 8, 64, 64]               0
            Conv2d-4           [-1, 16, 64, 64]             528
              ReLU-5           [-1, 16, 64, 64]               0
         MaxPool2d-6           [-1, 16, 32, 32]               0
           Dropout-7           [-1, 16, 32, 32]               0
           Flatten-8                [-1, 16384]               0
            Linear-9                  [-1, 300]       4,915,500
             ReLU-10                  [-1, 300]               0
          Dropout-11                  [-1, 300]               0
           Linear-12                    [-1, 2]             602
================================================================
Total params: 4,916,734
Trainable params: 4,916,734
Non-trainable params: 0
----------------------------------------------------------------
Input size (MB): 0.19
Forward/backward pass size (MB): 3.63
Params size (MB): 18.76
Estimated Total Size (MB): 22.58
----------------------------------------------------------------

…
[ 8/10] Train Loss = 0.1541; Valid Loss = 0.1295; Valid Accuracy = 95.2%
[ 9/10] Train Loss = 0.1457; Valid Loss = 0.1716; Valid Accuracy = 93.7%
[10/10] Train Loss = 0.1440; Valid Loss = 0.1251; Valid Accuracy = 95.3%


[10/10] Train Loss = 0.1440; Valid Loss = 0.1251; Valid Accuracy = 95.3%


Test Loss = 0.1104
Test Accuracy = 96.3%






________________


3_Layer_CNN_128


----------------------------------------------------------------
        Layer (type)               Output Shape         Param #
================================================================
            Conv2d-1          [-1, 8, 128, 128]             104
              ReLU-2          [-1, 8, 128, 128]               0
         MaxPool2d-3            [-1, 8, 64, 64]               0
            Conv2d-4           [-1, 16, 64, 64]             528
              ReLU-5           [-1, 16, 64, 64]               0
         MaxPool2d-6           [-1, 16, 32, 32]               0
            Conv2d-7           [-1, 32, 32, 32]           2,080
              ReLU-8           [-1, 32, 32, 32]               0
         MaxPool2d-9           [-1, 32, 32, 32]               0
          Dropout-10           [-1, 32, 32, 32]               0
          Flatten-11                [-1, 32768]               0
           Linear-12                 [-1, 1000]      32,769,000
             ReLU-13                 [-1, 1000]               0
          Dropout-14                 [-1, 1000]               0
           Linear-15                    [-1, 2]           2,002
================================================================
Total params: 32,773,714
Trainable params: 32,773,714
Non-trainable params: 0
----------------------------------------------------------------
Input size (MB): 0.19
Forward/backward pass size (MB): 4.65
Params size (MB): 125.02
Estimated Total Size (MB): 129.86
----------------------------------------------------------------
…
[ 7/10] Train Loss = 0.1215; Valid Loss = 0.1204; Valid Accuracy = 95.4%
[ 8/10] Train Loss = 0.1169; Valid Loss = 0.1250; Valid Accuracy = 95.7%
[ 9/10] Train Loss = 0.1136; Valid Loss = 0.1094; Valid Accuracy = 96.0%
[10/10] Train Loss = 0.1066; Valid Loss = 0.1152; Valid Accuracy = 95.9%


[10/10] Train Loss = 0.1066; Valid Loss = 0.1152; Valid Accuracy = 95.9%


________________


3_Block_CNN_128


----------------------------------------------------------------
        Layer (type)               Output Shape         Param #
================================================================
            Conv2d-1         [-1, 32, 128, 128]             896
              ReLU-2         [-1, 32, 128, 128]               0
            Conv2d-3         [-1, 64, 128, 128]          18,496
              ReLU-4         [-1, 64, 128, 128]               0
         MaxPool2d-5           [-1, 64, 64, 64]               0
            Conv2d-6          [-1, 128, 64, 64]          73,856
              ReLU-7          [-1, 128, 64, 64]               0
            Conv2d-8          [-1, 128, 64, 64]         147,584
              ReLU-9          [-1, 128, 64, 64]               0
        MaxPool2d-10          [-1, 128, 32, 32]               0
           Conv2d-11          [-1, 256, 32, 32]         295,168
             ReLU-12          [-1, 256, 32, 32]               0
           Conv2d-13          [-1, 256, 32, 32]         590,080
             ReLU-14          [-1, 256, 32, 32]               0
        MaxPool2d-15          [-1, 256, 16, 16]               0
          Dropout-16          [-1, 256, 16, 16]               0
          Flatten-17                [-1, 65536]               0
           Linear-18                 [-1, 1000]      65,537,000
             ReLU-19                 [-1, 1000]               0
           Linear-20                  [-1, 100]         100,100
             ReLU-21                  [-1, 100]               0
          Dropout-22                  [-1, 100]               0
           Linear-23                    [-1, 2]             202
================================================================
Total params: 66,763,382
Trainable params: 66,763,382
Non-trainable params: 0
----------------------------------------------------------------
Input size (MB): 0.19
Forward/backward pass size (MB): 52.52
Params size (MB): 254.68
Estimated Total Size (MB): 307.39
----------------------------------------------------------------
…
